4th-year/Courses/COL778/Assignments/A4_starter/policies/experts/Ant-v4.pth (torch, 27735 bytes, 6 tensors)

0.weight f4 [64, 27]
000000 ff d1 17 3e af f7 ea bd 30 be 86 bd 0e e1 a0 ba
       0.14826201 -0.11473023 -0.06579244 -0.0012274103
000010 8d 06 4b be e5 f8 44 3e 5a 6f 17 bd 69 fb 43 3e
       -0.19826718 0.1923557 -0.036971428 0.19138874
000020 57 1d 83 3d ca 72 f3 bd 21 6f bd 3d c7 02 61 bd
       0.064020805 -0.11887129 0.09249712 -0.05493429
000030 91 c0 45 3c 23 cd 9f bd 2f b1 3d bc 44 71 a2 bd
       0.012069837 -0.078027986 -0.011577888 -0.0793176
000040 50 2e 6c bd 89 ac 20 bd cd b6 07 3e da ab 4a 3d
       -0.057661355 -0.039227042 0.13253327 0.049480297
000050 c5 35 9d bd a0 42 c3 bd fe 82 b6 3d 26 48 a3 bd
       -0.07676271 -0.09534192 0.089117035 -0.079727456
000060 44 60 7d 3d 2b 0c 1b bd 0b 6d 26 3e a3 25 73 3e
       0.061859384 -0.0378534 0.16252534 0.23744826
000070 0e 1e 52 be 8b 42 0b be 3b ed 9c bd 82 5f 4f 3e
       -0.20519277 -0.13599603 -0.076624356 0.20251277
000080 d2 25 50 3e 53 4c 2f be 4a ed 8a bd 86 8d a9 bd
       0.20326927 -0.17118959 -0.067835405 -0.082789466
000090 fe b7 ba 3d ea ad a0 bc 10 cd e2 3d ef d6 11 bd
       0.09117125 -0.019614179 0.11074269 -0.035605367
0000a0 d3 22 30 3e 17 39 97 b9 70 07 69 3e 4e e5 c3 3d
       0.17200784 -0.000288435 0.22756743 0.09565221
0000b0 9e c3 c1 bd a2 0b 4a 3d bc 95 b6 bd 6b 96 df 3d
       -0.09461139 0.0493275 -0.08915278 0.10917362
0000c0 18 92 62 bd 62 3b 09 be a2 7e 08 be af 83 0e be
       -0.055315107 -0.13401559 -0.13329557 -0.13917421
0000d0 b7 a8 9a bc 99 bf 39 3c af 05 fe 3d f6 df 0f 3e
       -0.018879278 0.011337184 0.12403428 0.14050278
0000e0 1b 5a 6c 3d 47 48 86 3c 19 2a 4d 3e d6 75 49 3d
       0.05770312 0.016391886 0.2003559 0.049184643
0000f0 6c 7d ff bd 60 d4 89 3e 99 69 e2 3d 06 3c 38 3e
       -0.12475094 0.26919842 0.110552974 0.17991647
000100 26 4d ed bd d5 7c a2 bb 89 3d 75 3c 43 bd 93 ba
       -0.115869805 -0.004958729 0.014968284 -0.0011271614
000110 fa 19 9e 3c dd 0e b9 bd 8b 79 1b 3e b4 60 6c 3b
       0.019299496 -0.09036038 0.15183084 0.0036068382
000120 28 19 08 3e c1 45 d0 3c 55 55 86 3a 80 94 d0 bc
       0.13290846 0.025423886 0.001024882 -0.025461435
000130 81 83 ae 3c 9f fb c7 3d 94 53 a3 be 83 dd 87 3d
       0.02130294 0.0976479 -0.31899703 0.06634047
000140 2f 65 b8 bd dd a4 a8 be 40 8c 4e bd d6 5d 2b 3e
       -0.09003674 -0.3293828 -0.05042672 0.16735014
000150 55 9b 26 3e 7c 82 86 be c6 e5 0d bd e5 cf 05 3e
       0.16270192 -0.26271427 -0.034642957 0.13067587
000160 43 23 80 3a d3 72 26 3e 27 64 29 bd b4 d1 c3 bd
       0.0009776134 0.1625474 -0.04135528 -0.09561482
000170 bb e6 64 3d f4 99 af bd 0b a4 9c bd fd 0f 18 3d
       0.055884104 -0.08574286 -0.07648476 0.037124623
000180 b3 3e e8 bc 95 cb da 3d 1a e4 87 3a f1 e3 0b be
       -0.02835021 0.106833614 0.0010367662 -0.13661171
000190 b9 22 4f 3e 2a ea 51 3d 2a c6 10 3e 25 68 2f 3d
       0.2022809 0.051248707 0.14138094 0.04282393
0001a0 11 65 40 be e4 9b 47 be 37 bc d0 3d c2 be be 3d
       -0.18788554 -0.19493061 0.10192149 0.09313728
0001b0 9c b4 8b 3d a6 10 9b 3c 35 15 44 3d ea f1 eb 3c
       0.06821558 0.018928837 0.047871787 0.028801877
0001c0 90 c0 e3 3d 0f 20 e2 bd 47 7f 98 bb 60 30 fb 3d
       0.11120713 -0.11041271 -0.0046538445 0.12265086
0001d0 1e 38 2b 3e f9 44 f1 3d 57 11 e6 bd cc c0 33 be
       0.16720626 0.117807336 -0.11233776 -0.17554015
0001e0 12 49 0c be 77 19 d5 3b 56 f1 c6 3d d0 10 2e be
       -0.13699749 0.00650328 0.09714 -0.16998601
0001f0 e7 5f 68 3c 90 bb d3 bd 0c 69 5d be 4d a6 5f bd
       0.014183021 -0.10338509 -0.21622103 -0.054601956
000200 99 d1 9b 3d 1e 2d 80 3e 1b 87 8c bd 7e 02 42 3d
       0.07608337 0.25034422 -0.06861707 0.047365658
000210 67 80 9f 3d 33 c7 b2 3d eb 75 f1 3d d4 25 f0 3e
       0.07788163 0.087294005 0.11790069 0.4690386
000220 82 ac 25 3d 08 dc 6d be 3e 28 e7 be 61 4a b9 3d
       0.04044772 -0.23228467 -0.4514789 0.0904739
000230 cf e4 6b be 8d bb 21 be 19 92 52 3d 97 2a 26 3e
       -0.23036502 -0.15794201 0.05140886 0.16227184
000240 72 19 e5 3d c5 3d 7c 3d 88 12 39 3e 7f ab 4f 3e
       0.11186494 0.061582346 0.18073475 0.20280264
000250 07 ee 1a bc 23 98 26 3e e8 17 11 3e b3 e0 0d 3e
       -0.009456164 0.16268973 0.14169276 0.13855247
000260 a8 d1 d1 bd 47 99 39 3e 77 91 6c bd 1d c9 ad be
       -0.10245067 0.18124877 -0.057755914 -0.339425
000270 3a 8a 0a be c5 d5 33 bd 50 cf 7d 3e 39 28 78 bc
       -0.13529292 -0.04390504 0.24786115 -0.015146309
000280 ff 84 be 3c 52 ca 22 3d 2a d8 82 3e 9b f4 89 3d
       0.023256777 0.03974373 0.25555545 0.06736108
000290 4f e1 b1 be 37 df 17 be 32 8c b1 3d 76 0a 7c bd
       -0.3474221 -0.14831243 0.08669318 -0.061533414
0002a0 0c 94 3b be 0e 63 fe 3c 34 d9 d4 bc d3 66 b4 3d
       -0.18318194 0.031053092 -0.025982477 0.08808675
0002b0 91 83 8d 3d 8f 73 ac 3d 32 a5 9d 3e 2d 6b b3 3d
       0.0690986 0.084204786 0.30790097 0.087606765
0002c0 a4 e4 cc 3d 62 b2 95 3d 92 26 8f be 33 0b 97 3d
       0.10004547 0.073094144 -0.27959114 0.07375183
0002d0 f5 7d 8e ba 0b 37 90 bd c4 4c 1b be f3 12 fb bc
       -0.0010871278 -0.070417486 -0.15166003 -0.030648684
0002e0 bd 6f 4d be 4b 4e 1c 3e a9 ca 52 bd 92 fb 49 be
       -0.20062156 0.15264241 -0.051462803 -0.19724873
0002f0 53 c2 04 3d f8 bd 82 be 2e a5 7c 3d b9 05 ba bd
       0.032411885 -0.2553556 0.061680965 -0.09083123
000300 32 e0 8c be e4 c7 b7 3d 0b 2e 6c 3e 57 14 02 be
       -0.27514797 0.08973673 0.23064439 -0.12703072
000310 fe 20 3f 3e cc 7f e0 3d fb f3 15 3e 0a 32 1b be
       0.1866493 0.10961875 0.14643852 -0.15155807
000320 12 36 e4 3d e4 e1 a7 bd ae 63 38 3e d9 0d 78 3d
       0.111431256 -0.08197382 0.18006775 0.06056008
000330 0a 44 4d 3e 30 6b 8a 3d 4a b3 ea bd 18 27 d3 3b
       0.20045486 0.06758726 -0.11459978 0.0064438693
000340 2c 14 00 bc 49 a9 59 b9 92 fa a6 bc 8f fb d2 3d
       -0.007817309 -0.00020757796 -0.020383153 0.10301887
000350 54 27 e8 bd 8f 6c 46 3d 22 0e ce 3d 1b c5 1a 3e
       -0.11335626 0.048443373 0.10061289 0.15114252
000360 e5 32 14 3e 0e 8d 27 be a1 b4 2a be 22 d1 23 3e
       0.1447254 -0.16362402 -0.16670467 0.15997747
000370 28 b7 13 be 87 33 06 3e 8a e0 31 be 22 46 66 bd
       -0.14425337 0.13105594 -0.17370811 -0.056219228
000380 d4 01 ef 3d c9 d9 e5 bd 47 7e af bc 83 ef 05 3e
       0.116702706 -0.1122318 -0.021422518 0.13079648
000390 c5 33 09 3e e6 bc 22 3e ef 3e 16 3d d9 5d 61 be
       0.13398655 0.15892372 0.036681112 -0.22008456
0003a0 bb 96 4e 3e cc 2b 36 bd de 71 96 bd e3 8f d9 3d
       0.20174687 -0.04447536 -0.07345937 0.10623147
0003b0 de a3 b1 bd 48 6f 0b 3e aa 21 4a 3e c2 5b 31 be
       -0.08673833 0.13616669 0.19739404 -0.17320159
0003c0 1e 82 63 be d7 de d9 3c 7e c9 9a 3d 58 8b ee bb
       -0.22217605 0.026595516 0.07557963 -0.0072797947
0003d0 ac 19 c4 bd 4c 87 04 3e 7b 88 0e bd d9 b1 7b bd
       -0.09575209 0.12942237 -0.034798127 -0.061448906
0003e0 e1 27 2b bd 91 7b 41 3e d8 cd 87 3e 9a ad 9f bd
       -0.04178608 0.18894793 0.26524234 -0.07796784
0003f0 75 5d b1 bd 67 69 93 3d fe 74 57 3d 2d fc ea bd
       -0.08660404 0.07197838 0.052601807 -0.1147388

0.bias f4 [64]
000000 dd 8d 20 3c ae ca 2c be 67 ec b1 bd c1 0d 7a 3d
       0.009799448 -0.16874191 -0.08687668 0.061048273
000010 9a 4f c9 bd 32 7e 33 bd 80 80 91 3d 4b 31 44 bd
       -0.09829636 -0.04382152 0.071045876 -0.047898572
000020 9f ff f1 3b 0b c2 39 be 15 31 fc 3d f8 35 48 be
       0.0073852087 -0.18140428 0.12314049 -0.19551837
000030 2c 8e 1a bc 0e 61 18 be 50 63 11 be 2a c3 b7 3d
       -0.0094333105 -0.14880773 -0.14198041 0.089727715
000040 a8 39 ac bd c3 48 33 bd d1 55 4e 3d ca 9b 25 3e
       -0.084094346 -0.043770563 0.05037481 0.1617271
000050 14 52 6c 3c 05 4e d6 3d ae d9 b3 bd b5 82 07 bd
       0.014423866 0.104641 -0.087817535 -0.033083636
000060 c7 03 e9 3d a7 4c 56 3d 92 18 7d 3d 4c 80 f6 bd
       0.113776736 0.052319195 0.06179101 -0.120361894
000070 0f ca 05 be 8d 32 86 3d a2 2b d7 bd 91 1c 21 3e
       -0.1306536 0.065526105 -0.10506369 0.15733553
000080 ae c0 44 3e 2f bc 93 bd 79 7d c9 bd 6a c3 2a 3e
       0.19214126 -0.072136275 -0.09838385 0.16676107
000090 2e 59 a8 bd 4a 39 ca bd 80 c3 25 be ba 55 ab 3c
       -0.08220135 -0.09874208 -0.16187859 0.020914901
0000a0 03 4a 62 bc 5e fb c3 3d cc fa 46 3d 42 7e 8d 3d
       -0.013811591 0.09569429 0.048579022 0.069088474
0000b0 9c 63 fe bb 80 ee 64 3e a1 82 e4 bd f2 77 a3 bd
       -0.007763339 0.22356606 -0.11157728 -0.07981862
0000c0 09 c2 39 3e 56 89 4a bd f4 ae bd 3d 8f 9d 0a 3c
       0.18140425 -0.04944738 0.09261885 0.008460416
0000d0 dd fb 89 3d e6 25 ec bc ba f2 43 be 3e da 19 3e
       0.06737492 -0.028826665 -0.19135562 0.15024659
0000e0 62 6f 34 3e f4 7e f8 bd 75 b0 ec bd 45 dd cf bb
       0.17620614 -0.121335894 -0.11557094 -0.006343516
0000f0 eb ba 56 3d fe a8 3b bd eb 4a a3 bd 5e 19 5a 3e
       0.052424353 -0.04581546 -0.07973274 0.2129874

2.weight f4 [64, 64]
000000 01 39 d3 3c 3d ea c0 3d f8 ba da bc 07 f3 66 3d
       0.025784018 0.094196774 -0.026700482 0.056384113
000010 a2 21 6a 3d f8 4f 21 3d 86 5e bf 3d 08 47 90 3c
       0.05716098 0.039382905 0.09344201 0.017611995
000020 a7 66 e8 3d 06 6a 55 3c b8 df 9c bd e3 3d 59 3d
       0.113477044 0.013025766 -0.076598585 0.053037535
000030 49 4d 03 be 1b 64 a9 3d bb a2 22 bd 95 fc 40 3a
       -0.1282245 0.08271047 -0.039705973 0.00073618564
000040 97 77 30 bc da bb 40 3d d3 aa e0 3b 53 f3 85 3d
       -0.0107707 0.04705415 0.0068563013 0.06540551
000050 08 8e 42 3d b0 46 ea bd ec 74 06 3e 43 e3 88 bd
       0.047498733 -0.11439264 0.1313054 -0.06683972
000060 75 7d 99 bd e6 23 e9 3c 20 78 0a 3e 99 23 7c 3d
       -0.07494632 0.0284595 0.13522387 0.061557386
000070 22 9d 94 bd 78 1e 4e 3c 0d 08 97 bd 2e 30 f5 3c
       -0.07256533 0.0125805065 -0.073745824 0.0299302
000080 b5 ed cf 3c a3 e6 0d 3d 4f df ee bd c3 38 9b 3d
       0.025381902 0.03464378 -0.116636865 0.07579186
000090 9f ed ad 3d 5f be 91 bd 00 b8 7c 3d 77 7d 96 bd
       0.08492588 -0.071163885 0.061698914 -0.07348149
0000a0 c6 95 93 bd 91 e9 05 3e 19 19 0d be ac 22 99 bb
       -0.072063014 0.1307738 -0.13779105 -0.0046733227
0000b0 9e 99 66 3d c2 d6 7b 3d c1 44 cd bd 52 e1 8d bd
       0.056298845 0.061484106 -0.100228794 -0.06927742
0000c0 ab 61 65 3d 0a b1 cf bd f5 26 23 3d ba 6f bf bd
       0.056001347 -0.101411894 0.039832074 -0.09347482
0000d0 8a dc 31 bc f5 b5 c3 3d 8c 2c 0a be 16 19 83 bc
       -0.010855803 0.0955619 -0.13493556 -0.016003173
0000e0 b3 33 83 bd f1 82 ea 3d 4e dc e7 3d 16 17 d9 bd
       -0.06406345 0.11450756 0.11321317 -0.106001064
0000f0 38 30 d0 3d 20 79 a2 3d b5 b0 04 be 44 b9 da bc
       0.10165447 0.07933259 -0.12958033 -0.02669967
000100 22 12 89 3d 65 3b 06 bd 88 b9 7c 3d f4 0f 85 bb
       0.06692912 -0.032771487 0.061700374 -0.0040607397
000110 26 12 6e 3b 7d 27 9f 3d 8a 0c f3 bd 64 c2 e4 bd
       0.0036326735 0.07771204 -0.11867626 -0.111698896
000120 f2 21 07 3d ec 86 0b 3b d7 7e 97 3b 16 8b a5 bd
       0.032991357 0.0021290137 0.004623275 -0.08083169
000130 c4 54 d8 3d e3 c3 a7 bd cc b8 81 bd b2 5b 03 be
       0.10563043 -0.08191659 -0.06334075 -0.12827948
000140 0a bd 01 be b9 33 1a 3d c5 45 2c bd 0d 4f b7 3d
       -0.12669769 0.037646983 -0.042058725 0.089506246
000150 93 06 f0 3d 04 31 04 3d e2 14 f1 3d 4a 47 a2 bd
       0.11720004 0.032273307 0.11771561 -0.079237536
000160 1a 69 87 3d 47 dc 7f 3d 9a 11 6f bd 9e c0 61 3b
       0.066118434 0.062465932 -0.058366396 0.0034447084
000170 2e 3c 93 bd 84 f9 90 3b 5c cc f0 bd 5f 7a a1 bd
       -0.07189213 0.004424276 -0.117577285 -0.078846686
000180 c4 66 de bd be af 22 bc a7 17 26 3b d0 ea d2 bd
       -0.10859445 -0.0099295955 0.0025343688 -0.10298693
000190 f2 74 76 bd 2f 11 98 3d 1e fa 7c 3c 81 cf d6 3c
       -0.06017012 0.074251525 0.015440492 0.026221992
0001a0 5d b3 7f bd af 3f 22 bd a2 ed f7 bd 48 b5 9b 3d
       -0.062426914 -0.039611515 -0.12105872 0.07602936
0001b0 9a e2 00 3b 73 68 8f 3d 03 60 1f 3d 42 cf 70 bb
       0.0019666315 0.07002344 0.038909923 -0.003674463
0001c0 3c fb 9c bd 17 4d 2e 3d e8 89 12 be 45 8a 2a 3d
       -0.07665107 0.042553987 -0.1431042 0.04163577
0001d0 47 02 9e bd 62 26 80 3d 0e 15 c8 bd e8 2d 9e 3d
       -0.07715278 0.06257321 -0.09769641 0.077236
0001e0 84 1e c8 3d 12 c9 de 3d f7 73 cb bd ae 57 c0 3d
       0.097714454 0.10878195 -0.09934228 0.093917236
0001f0 1a fc 8e bd 2d 07 d5 bd 70 77 92 3d f6 fa 9e bb
       -0.06981678 -0.10401759 0.07151687 -0.004851694
000200 39 5b 2c bb 5d b2 d7 bd 99 48 ce 3c b7 75 91 bd
       -0.002629949 -0.10532067 0.025181102 -0.071025304
000210 94 74 b0 bd 81 62 63 bc 53 2e fa bd de bc 8c 3d
       -0.086159855 -0.013878466 -0.12215867 0.06871961
000220 7b 81 8f bd 27 01 5a bc 0f e5 32 be ca 20 f1 bc
       -0.07007118 -0.013305939 -0.17470191 -0.02943458
000230 48 21 25 bd b0 3f a5 3d 50 14 19 bc 1f bd 46 3d
       -0.040314943 0.08068788 -0.009343222 0.048520204
000240 a8 39 e9 3d ba 0e 57 3d db 46 84 bd 8f b7 ef bd
       0.1138795 0.05250428 -0.06458827 -0.11704933
000250 df b1 b2 bd 79 d3 13 bd 0c b0 77 bd 7b 22 1d 3d
       -0.087253325 -0.036090348 -0.060470626 0.03836296
000260 5c 66 7c bd 1e fb bf b8 dd 8e 09 3d 75 27 a0 bd
       -0.061621055 -9.154364e-05 0.03358351 -0.07820026
000270 09 9c b9 3d d7 e9 37 bd 55 1d b3 bd 93 81 17 bd
       0.090629645 -0.04490074 -0.08745829 -0.036988806
000280 6a 7c f1 bd df f8 d3 3c e6 24 9e bd 12 77 08 bc
       -0.11791308 0.025875507 -0.077218816 -0.00832917
000290 06 a8 97 bc 94 28 b8 3d 79 6d cb 3d 0d df e1 3d
       -0.018512737 0.08992115 0.099329896 0.11028872
0002a0 85 45 11 bd ae 26 d1 3d cf f3 e8 bd 87 d9 d1 bd
       -0.03546669 0.10212456 -0.11374628 -0.10246568
0002b0 7e fc c2 3d 9a bd 09 3c b8 e5 87 3d 9f 63 2f 3d
       0.09520815 0.008407021 0.06635612 0.042819615
0002c0 f5 96 99 3d cc bf 66 3d 6e 9f 1b bd 66 ec 20 bd
       0.07499496 0.056335256 -0.03799384 -0.039287947
0002d0 b9 f6 61 3d 6e d9 8c 3d a3 02 38 bc 28 ae 2e bd
       0.055166934 0.06877409 -0.011231097 -0.042646557
0002e0 fe fe 7e 3d d2 89 32 3d 9d 93 f2 3b 45 70 11 bd
       0.0622549 0.043588467 0.007402851 -0.03550746
0002f0 9c 41 0d be 0c 52 7c 3d 93 3c ee 3c 2e 3e a5 bd
       -0.13794559 0.061601683 0.029081618 -0.080685005
000300 cc 0c e0 bd 09 4e 05 be 14 0f 9b 3d 8a a4 07 3e
       -0.10939941 -0.1301805 0.07571235 0.1324636
000310 05 2d 8e 3d ea 5c b0 3d f3 17 eb bc 2e 34 ca 3d
       0.069421805 0.08611472 -0.028697943 0.09873234
000320 b9 d3 db 3d 34 20 31 bd f8 a7 5c bd 7c de fd 3d
       0.10733742 -0.043243602 -0.053871125 0.12395951
000330 13 98 a2 bc 5f 22 54 3d fa cf 95 bd d7 2f 69 bd
       -0.019847905 0.05179059 -0.07315059 -0.05693039
000340 53 8b 54 bd d4 f0 a3 3c 2f b5 d1 3d 75 41 aa 3d
       -0.051890682 0.020012297 0.10239636 0.08313266
000350 e4 43 c2 bc 8e 98 f4 3d c5 b2 20 bd 02 3b bc 3b
       -0.023714013 0.1194316 -0.039232988 0.005744339
000360 70 2e b9 bd 71 04 30 bd 4d 22 0a 3e a8 cc dd bd
       -0.090420604 -0.042972986 0.13489647 -0.10830051
000370 91 a7 06 3c 29 fb b7 bd c2 2c b5 bc 6b 21 5d bd
       0.008218662 -0.08983452 -0.022116069 -0.053986948
000380 2b d5 49 3d be de c5 bd c0 9e c1 bc 05 ac b7 bd
       0.04927556 -0.09661625 -0.023635268 -0.08968357
000390 ba d2 4c 3d c6 cd 2f bd 5c b0 42 bd 85 19 a8 3d
       0.050005652 -0.04292085 -0.04753147 0.082079925
0003a0 28 58 da bc 8f c9 d1 bd c4 33 1b bd 4f 4c 98 bd
       -0.026653364 -0.102435224 -0.037891164 -0.0743643
0003b0 75 62 d7 bd ba 63 22 3d b9 08 5a bd 52 46 bd 3d
       -0.10516826 0.039645888 -0.053230975 0.09241928
0003c0 af c5 3c 3d 83 6e c6 bd cc e6 cb 3d 44 1d 0e bb
       0.046086963 -0.09689047 0.099561304 -0.0021684924
0003d0 fa 79 3b bd d7 31 e5 3d 5f 8c 8d 3d 36 fc c1 bd
       -0.045770623 0.11191147 0.06911539 -0.094719335
0003e0 ce 3c cd bd 1c f0 21 bd aa 01 d2 bd 33 a8 2e bd
       -0.10021363 -0.039535627 -0.10254224 -0.042640876
0003f0 43 e9 90 3d 00 38 19 be 52 81 3a be 5a b4 d3 bd
       0.07075741 -0.14962769 -0.18213394 -0.10337134

2.bias f4 [64]
000000 2a 6d ed 3c 22 eb e6 3d 96 6a f8 bc f8 2b 8d bc
       0.028982718 0.11275317 -0.030324262 -0.01723288
000010 83 d4 f0 3c 70 ea fb bd 9d 7d a7 bd a1 ca 9e bd
       0.029398208 -0.12300575 -0.08178256 -0.07753492
000020 14 f8 5d 3b 67 95 3b 3d 9e e6 e1 3d 09 0a d3 bd
       0.003386979 0.045796778 0.11030315 -0.103046484
000030 d4 c4 38 3d 39 e3 c2 bd 52 aa 09 3d 68 d6 57 bd
       0.045109585 -0.095159955 0.033609696 -0.052694708
000040 01 16 dd bd 92 9b b2 bd 09 b5 a5 3d 50 6c ae bd
       -0.107952125 -0.08721079 0.0809117 -0.08516753
000050 10 ad 8c 3d c8 e9 f9 3d aa 61 98 bd 4c 51 95 3d
       0.068689466 0.12202793 -0.07440503 0.07290897
000060 d4 0e ac 3d 3f 90 0c be eb 6c c7 bd dd 46 f7 3d
       0.08401266 -0.137269 -0.09737571 0.12074063
000070 40 1b 9f bd 6a b7 85 3d e8 d3 be bd 79 07 19 bd
       -0.077688694 0.06529124 -0.09317762 -0.037360642
000080 0a 04 5d bd 42 11 ad 3c db 87 bb bd d7 a9 64 bd
       -0.05395893 0.021126393 -0.09156772 -0.055826034
000090 76 12 f7 39 a4 0f d2 ba 88 61 61 3c 57 37 a1 bd
       0.00047125266 -0.001602639 0.013756163 -0.07871883
0000a0 b0 67 ac 3d f5 eb dd 3d c6 de c5 3d e2 78 bc bd
       0.08418214 0.10836021 0.09661631 -0.09202744
0000b0 13 d9 04 be 1a 3b dc bd 1a a5 12 3d 7a 0a b1 3a
       -0.12973432 -0.1075346 0.035801984 0.001350715
0000c0 f4 9f 28 3d 06 45 9e 3c 2e c2 b5 3d 20 cb 0c 3d
       0.04116817 0.019320022 0.088749275 0.034373403
0000d0 5e a1 52 3d 04 bb 74 bd ab 1f 8e bc 9a 36 c9 bc
       0.051423423 -0.059748664 -0.017349085 -0.024562169
0000e0 61 74 c0 bd 53 b6 37 bd 05 15 1b be db 9a f2 3d
       -0.093971975 -0.044851612 -0.15144737 0.118459426
0000f0 b5 48 d8 3d 1d cf 6f bc c2 6b 38 bd c0 a8 1e bc
       0.10560743 -0.014636782 -0.04502464 -0.009683788

4.weight f4 [8, 64]
000000 af 0f 79 3d 01 38 59 3d 9d 10 ce 3d 8f 60 05 3d
       0.060805973 0.053031925 0.100617625 0.03256279
000010 77 7e 89 3d 9c e0 f2 bc 32 e0 ae bd 1c 4d 9f bd
       0.067135744 -0.029648118 -0.085388556 -0.07778379
000020 ac c2 67 bd 2f b3 37 3d b8 f3 9c 3c fd 7f c3 3d
       -0.056582138 0.044848617 0.019159183 0.09545896
000030 1d 0e c9 3d 97 7d d9 bd 77 00 81 3d 0e 8c 05 bd
       0.09817145 -0.106196575 0.06298917 -0.03260427
000040 b9 eb cd 3c 9f 51 1f be ee 5c de bc 27 99 65 3d
       0.025136815 -0.1555848 -0.027143922 0.05605426
000050 83 62 0e bd 54 a8 c5 bd 17 14 a7 3d 94 1c cd bd
       -0.034761917 -0.09651247 0.08158129 -0.100152165
000060 ba 52 5d bd 20 43 3d ba 43 ed df 3c 32 a3 9e bd
       -0.054033972 -0.000721978 0.027334815 -0.07745971
000070 59 83 be 3d ab 05 0b be a1 3e c5 3d da ba c1 bd
       0.09302396 -0.13576381 0.09631086 -0.09459467
000080 54 39 80 3c 85 87 4b bd 31 f9 e5 bd 75 e0 f3 3d
       0.015652336 -0.04968979 -0.1122917 0.11908046
000090 22 0e 3f 3e 81 c9 3d be 60 76 3c be ad 13 2d 3d
       0.18657735 -0.18533899 -0.18404531 0.042255092
0000a0 c1 fa 9b 3d 94 dd 0a 3d af 12 3b bc e6 b5 cf 3c
       0.07616187 0.03390272 -0.011418029 0.02535529
0000b0 c2 d1 a7 bd 9d aa 94 3d 89 50 af bc bb ff ec bd
       -0.08194305 0.072591044 -0.021400707 -0.11572214
0000c0 ec 28 fd bd 87 18 06 bd 76 52 7e bd 95 ff 4c bc
       -0.12361321 -0.032738235 -0.06209036 -0.012512107
0000d0 a4 2c 06 3e 42 db b3 3c 2b e8 a3 bd e7 62 b9 3d
       0.13102967 0.021955136 -0.08003267 0.09052067
0000e0 5b f6 c8 3d a9 cd 18 3c af ec 51 3c 07 89 12 bc
       0.098126136 0.009326377 0.012812777 -0.008943803
0000f0 40 69 e1 bc 37 10 db 3c 91 d0 1e 3d 22 dd 23 3e
       -0.027516007 0.02674113 0.038773123 0.16002324
000100 d9 18 a3 3d 4a a3 d1 3d 27 b8 65 bc 71 ea b1 3d
       0.07963724 0.10236223 -0.014020956 0.08687294
000110 d9 53 8c 3c 0a 47 47 3d 5f ea d4 3d 23 82 12 3c
       0.017129825 0.048651733 0.10396265 0.00894216
000120 ac b9 d0 bd 9c b5 8e 3d 98 26 73 bd ce 81 cb 3d
       -0.10191664 0.06968233 -0.059362978 0.09936868
000130 3c b3 26 3c fa 30 20 3c 6e 95 b9 3d e2 22 ca bd
       0.010174569 0.009777302 0.090617046 -0.098699346
000140 41 d7 e1 bd e6 72 f1 3d aa a3 ed bd 0c 54 c7 bd
       -0.110273845 0.11789493 -0.11603482 -0.097328275
000150 25 68 bd 3b 2e e8 44 3d 55 f4 c5 3d 98 90 7b bd
       0.0057802373 0.048072986 0.09665743 -0.061417192
000160 ea 5a f6 3c 99 aa f4 bc 10 0b a1 3d a3 82 0e 3e
       0.030072648 -0.029866504 0.07863438 0.13917021
000170 2a c8 b6 3d 17 2c 27 be b3 06 42 bd 31 5e fc 3d
       0.08924897 -0.16325413 -0.04736967 0.12322653
000180 23 bf 90 3d 78 83 f0 bd fd 34 b9 3d db 40 05 3e
       0.070677064 -0.11743826 0.0904331 0.13013022
000190 16 77 af bd 33 20 44 bd 70 63 b4 bd dc 9e cb 3b
       -0.08567636 -0.04788227 -0.08808029 0.006214006
0001a0 e4 e5 e7 bc ec 77 fe bb ce 6c b5 ba e9 64 08 3d
       -0.028307863 -0.0077657606 -0.001384163 0.03329936
0001b0 0e 65 e0 3d 2d cd d4 3c ab bc fc 3c 6f 69 61 3e
       0.10956775 0.025976742 0.030851683 0.22012876
0001c0 14 66 ae bc dd bf 0a bd 46 f8 61 3c 67 99 e7 3c
       -0.021288909 -0.03387438 0.013792103 0.02827139
0001d0 5a 2f b3 bd 6b a6 4a bd 2d d3 00 be 43 e0 7a 3d
       -0.08749266 -0.049475115 -0.12580557 0.06124903
0001e0 86 46 da bd 18 05 86 3d 3f 58 c9 3c f2 d4 88 bc
       -0.106579825 0.0654394 0.024578212 -0.016703103
0001f0 fc 3f dc 3d 74 38 99 3d 43 87 98 3c 0b b7 83 bc
       0.107543916 0.07481471 0.018619185 -0.016078493
000200 26 b8 88 bc a4 e0 7a bd 97 56 75 3d 64 7e 97 bc
       -0.016689371 -0.06124939 0.05989703 -0.018492885
000210 09 ef df 3d f2 96 e0 3d f6 bc 1a be 52 93 d7 3b
       0.10934264 0.109662905 -0.15111145 0.0065788412
000220 7e 5a 74 3d da c7 9f 3c 67 0c bc 3d 41 d7 e6 3b
       0.059656613 0.019504476 0.09182053 0.0070447032
000230 20 a1 5e bd 63 c9 4b bd 79 5f 79 bd 20 6c 68 3d
       -0.05435288 -0.049752604 -0.060882065 0.05674374
000240 9c 3a b1 3d b8 27 c2 bb c4 0b 34 be 8b 10 10 be
       0.08653757 -0.005925145 -0.17582613 -0.1406881
000250 cf 43 07 3e 59 3c 17 3d 56 59 2b 3d b7 38 92 bd
       0.1320946 0.036922786 0.041833244 -0.07139724
000260 30 fb 08 3d 54 54 76 3d aa ea c6 3c dd b9 44 3d
       0.033442676 0.060139015 0.024281818 0.048028816
000270 21 4e 9e 3c 73 23 97 bd 19 f4 fe bd c1 64 1d bd
       0.019324364 -0.07379808 -0.12448902 -0.038426165
000280 6b 6f d8 3d 59 f9 8e bd f4 8e 4e 3e 13 88 ae bd
       0.10568126 -0.06981153 0.2017172 -0.08522048
000290 92 bc cc bd 9c 08 a9 3d f2 b6 ce 3d 6b 5a 19 be
       -0.099969044 0.08253595 0.10093488 -0.14975898
0002a0 75 56 85 bd 82 c4 9a 3d b4 55 8c 3d 39 46 8f 3d
       -0.06510631 0.07557012 0.06852284 0.06995816
0002b0 64 6c 95 bd 3a 2b 24 be 46 1e 55 3e 40 04 ab bd
       -0.072960645 -0.16032115 0.2081233 -0.0835042
0002c0 c4 8f 02 3e db 7f f7 bd 33 6c bb 3b 0e 6d 6e 3c
       0.12750155 -0.12084933 0.0057196855 0.014552368
0002d0 c4 01 9b 3d 93 51 63 be a0 7a d9 bd 49 b2 89 bd
       0.07568696 -0.22199087 -0.10619092 -0.06723458
0002e0 7a 3f ab 3d 04 20 b8 bd 38 9a 3e be 4e 95 a6 bc
       0.083617166 -0.089904815 -0.18613517 -0.020334866
0002f0 64 db 07 3e 97 9f 41 be 9c 01 8f 3d b0 32 43 3e
       0.13267285 -0.18908535 0.06982729 0.19062304
000300 14 10 b3 3d a1 ce bc 3d 58 fa 0f bd 96 0f f5 3d
       0.08743301 0.09219099 -0.035150856 0.119658634
000310 34 c4 ca bd a5 0f 0e 3d fa 13 c4 3d cf ca b4 3d
       -0.09900704 0.03468289 0.09574123 0.08827745
000320 8a 5d cd 3d 7e 79 64 3d fc 14 a5 3d ab 5d 4f be
       0.10027607 0.055779926 0.08060643 -0.20250575
000330 f8 43 31 3d 45 b0 10 be 1a ae 27 3d 09 ef 14 bd
       0.04327771 -0.14129741 0.04093752 -0.036360774
000340 51 3f 92 bd d7 5e 9a 3c ae 42 d2 bc 98 7e 4a be
       -0.07140983 0.018844051 -0.025666561 -0.19774854
000350 a3 48 1b be c9 d6 2e 3e 25 4f 82 3d ee 96 18 3e
       -0.15164427 0.17074122 0.06362752 0.14901325
000360 b1 3b 1f bc 78 da 2d 3d 89 1e c7 bd f6 17 84 bd
       -0.009718821 0.042444676 -0.09722621 -0.06449883
000370 5f 58 bd 3d 05 e5 c1 3c 8c dd 05 be 3d 20 65 3d
       0.09245371 0.023668775 -0.13072795 0.055938948
000380 2b 8e fc bc e8 b6 8a bd ef 84 9b bd 13 3b fb 3b
       -0.03082951 -0.06773168 -0.075937144 0.0076669543
000390 48 ae e7 bd 17 ba ef 3d 83 70 93 bd 51 ed b2 bd
       -0.113125384 0.11705416 -0.07199194 -0.08736671
0003a0 cf 90 b9 bd 31 01 63 3d 5c 71 a7 3d 08 30 27 bd
       -0.09060823 0.055421058 0.081759185 -0.04081729
0003b0 2b 20 18 be 6b b2 02 bd 8b f1 e5 3d 46 d8 08 be
       -0.14856021 -0.031908434 0.11227711 -0.13363752
0003c0 9c 14 86 3d 86 29 2e 3d f7 09 87 bd f8 f4 40 be
       0.065469 0.04252007 -0.065936975 -0.18843448
0003d0 36 7c 70 3d 15 8b d4 bd d0 4e c0 bc 57 5a 27 3e
       0.058712207 -0.1037809 -0.02347508 0.16343056
0003e0 d8 39 a9 3c 32 32 30 3d fd b1 ce 3d 96 e2 81 bd
       0.020657465 0.04301662 0.10092542 -0.06342046
0003f0 04 d6 9b 3d 7e c2 61 3d 7d bf 8c bd f0 f1 bf 3d
       0.076091796 0.055117123 -0.06872461 0.09372318

4.bias f4 [8]
000000 09 b8 83 bc c9 9b 2d bd 66 cd d2 bc 2d 21 cd bd
       -0.016078966 -0.042384896 -0.025732707 -0.100160934
000010 3e 0d 3d bd 3f 48 13 b9 e8 19 b1 bd 10 ac 90 bd
       -0.046155207 -0.00014045926 -0.08647519 -0.07064068
