4th-year/Courses/COL778/Assignments/A4_starter/policies/experts/Hopper-v4.pth (torch, 12623 bytes, 8 tensors)

0.weight f4 [32, 11]
00000000: 2d3e 213e 1c06 0a3f 2a6f e13d 260c 9c3e
00000010: f813 c7be 049b 1d3e 7831 553d 4693 ae3e
00000020: b15b 813d e22a e73c 2b9a 0c3d e7e2 a3bd
00000030: 7bd3 343f a365 94bd 86ac ff3c c34a b83d
00000040: 9640 e93d b354 dabc fbe6 c73e 67c3 773d
00000050: bf9f f1bd 8457 16be fe51 24be 4d36 e23e
00000060: 2c6f 4fbd 3143 343e 6b61 093d a7d8 423e
00000070: de2a 13be eeb8 bb3e 0a34 173e 0a19 c23e
00000080: 4e35 1d3e 412e a1be dd63 7f3e 6b22 08be
00000090: 729c c83e e54d f2bd db6d 273e 64bd 053d
000000a0: 0538 cf3e 9f14 afbd a526 ea3d b35f 0cbd
000000b0: 9698 d2bd b90b 80be 37a3 16be 67f6 913d
000000c0: 0d05 85be 8cd9 13be 3258 4dbe 8d30 88be
000000d0: 03ec 413e 0065 08bd 1235 9d3e 20d4 c33e
000000e0: defb 2f3e 4546 50bd b936 1cbd 311f 783e
000000f0: 3f56 80be b276 39bd 02b9 733e 622f f23d
00000100: 324d 20be 1085 7f3d ea07 263e f889 8e3d
00000110: 64cb 72bd 1de5 8cbe e698 743d 5100 31be
00000120: 5e61 eb3d e7de 073d e69c e33d 6cdd 553d
00000130: a4f9 d03d de87 683e 9665 53bf 0f1a 403b
00000140: c7ea 8dbe c6bd 8bbe 2b81 abbc a2d7 aabd
00000150: afdf ae3d eb4b 90be 7a87 55be d1a1 013e
00000160: 32fb 023d 570a 0d3f e1e2 b93e 3fba 17be
00000170: 564b 34bd dcd7 a33d 3fea 08be 8abe 6a3c
00000180: 8de3 dc3d 0126 363e 2b2b a9bb 4755 3ebe
00000190: 0b0a 6a3f ec82 00be 4945 443e 7bbf 693e
000001a0: dd06 8ebd cdca 9cbe 0733 dd3e 9d2d b4bd
000001b0: 708d 203e b6b7 f83d 4862 123c 13c7 2a3f
000001c0: 2684 e73e a7ce 90bd 8b19 6d3b 9b18 0c3e
000001d0: cee6 223e 13cd 773e 8b93 82be 2622 92be
000001e0: c15f 2dbe 07ea 533e cb06 893e d5a0 96be
000001f0: c293 ce3b 6d3e 15be ac44 95be 90c8 68be
00000200: cb61 573e 2f99 523e a383 14be d71a 003d
00000210: 68f5 8b3e 777b cebe 900a 903e 3f8b 483e
00000220: 824f 833d 2941 a8bd 89da fabd 8be5 f1be
00000230: 2c19 9dbd 71a9 21bd 6433 18be f4a3 f03d
00000240: abc3 373f 10d0 a53d 11f0 6e3d 6790 5e3e
00000250: ad3e 6a3e bfe9 0f3d 9592 0b3e 8639 8f3e
00000260: 3e2e 86bd 1fb7 8e3d 872e d2be ed7d 263e
00000270: 026a b3be fc39 67bd cca3 903e ed4f 633d
00000280: 7378 38be 3349 fb3d 9aeb 163e 817f fc3d
00000290: a760 2cbe 6901 0f3d 7b9d b63e c269 d6bd
000002a0: 8b25 26be 8b53 30be 1750 bf3c 943d f93d
000002b0: 2078 813e 7049 a83d fbc0 bc3e 6ad6 943e
000002c0: 5d73 7e3e 1e09 17bf d8af 40be 76d7 513e
000002d0: e978 59be 2d1f 01be 3e01 46be ce04 6fbe
000002e0: 933e 1cbe fedc 843e 7bd6 f6bd fd71 c9be
000002f0: 2422 243e 702d e0be 7345 383e 054d 88bd
00000300: a7ac 28bc e3f2 c03c 063a 6a3e e052 97be
00000310: 9f09 ff3d 9226 cf3d 184a db3e 3347 acbe
00000320: da3c 543e 49e5 41be 351f 453e c1a8 54be
00000330: 9410 fc3d 3e60 3e3d 69d3 c0bb 3417 e13d
00000340: 04c4 183c 54d1 123e 1595 5dbd a518 a6bd
00000350: 5a2a e5be 3096 a23e 4e07 8d3e fdfe abbb
00000360: a4f1 423e 0a04 b9be 8a46 26be d402 5e3e
00000370: 75c9 1bbe 0f87 663f ca10 c5bd afa2 82be
00000380: bba9 473e 16b1 25be bab2 2bbe 91ce e63e
00000390: 6c2e 3a3e fd2e 813e 334e 203d 40e6 c5be
000003a0: 5837 2a3f b1bf babe 9cdd 60be 7ecb 443e
000003b0: 062b ef3c 2e04 683e 7adb 703e 8d77 a8be
000003c0: 3bc7 a5be 5b9f d13c 0474 783e abfd 803e
000003d0: e917 27be 6264 5abe d663 23be 9d49 51be
000003e0: 0ca4 f4be 92b9 953e d4f6 013e 400d 11be
000003f0: 868a 26bc e1d2 3d3e e33d c33e e26a 7ebe
0.15746374 0.5391557 0.11007531 0.3047802 -0.38882422 0.15391165 0.05204913 0.34096736
0.06316317 0.02821869 0.034326714 -0.080022626 0.70635194 -0.07245948 0.031210195 0.08998635
0.11389272 -0.026651716 0.39043412 0.060489085 -0.11798047 -0.14681822 -0.16046903 0.44182053
-0.05064313 0.17603756 0.03354017 0.19027959 -0.14371821 0.36664528 0.14765945 0.37909728
0.15352365 -0.314806 0.24940439 -0.1329438 0.39181858 -0.118312635 0.163505 0.03265132
0.40472427 -0.08548855 0.11433152 -0.034270953 -0.1028301 -0.25008944 -0.14710699 0.07127076
-0.25980416 -0.14438456 -0.20053175 -0.2659954 0.18937688 -0.033299446 0.30704552 0.38247776
0.17185923 -0.050848264 -0.038138125 0.24230649 -0.250658 -0.045279212 0.23801044 0.11825444
-0.15654448 0.062382758 0.16213956 0.06959909 -0.059276 -0.2751855 0.059716128 -0.17285277
0.11493181 0.03317156 0.111139104 0.052213117 0.10203865 0.22708079 -0.8257688 0.0029312407
-0.27718183 -0.27293223 -0.020935616 -0.0834191 0.08538758 -0.2818292 -0.20852461 0.12659384
0.03197784 0.550939 0.36305907 -0.14817141 -0.04401716 0.08000156 -0.13370608 0.014327655
0.10785589 0.17787935 -0.0051626167 -0.18587218 0.91421574 -0.12549943 0.19167055 0.2282695
-0.06934903 -0.30623475 0.43202993 -0.087977625 0.15678954 0.12144415 0.008934565 0.66710013
0.4521801 -0.07070666 0.0036178555 0.13681261 0.15908358 0.24199323 -0.2550319 -0.28541678
-0.16931058 0.20694743 0.26762995 -0.2941958 0.006304235 -0.14574595 -0.29153955 -0.22732759
0.21033399 0.20566247 -0.1450334 0.031275596 0.27335668 -0.4032857 0.2813306 0.19584368
0.06411649 -0.08215553 -0.122487135 -0.4724544 -0.07670817 -0.039468233 -0.14863354 0.117500216
0.7178294 0.080963254 0.058334414 0.21734773 0.22875471 0.035135027 0.13630135 0.27973574
-0.06551789 0.06968521 -0.41051123 0.16258974 -0.35041815 -0.056451783 0.28249967 0.055496145
-0.18014698 0.12269821 0.14738312 0.12329007 -0.16833745 0.034913454 0.35667023 -0.104693905
-0.16225259 -0.17219369 0.02335362 0.12169948 0.2528696 0.08217132 0.36865982 0.29069835
0.24848695 -0.58998287 -0.18817079 0.20492348 -0.2123753 -0.12609549 -0.19336411 -0.23341677
-0.15258245 0.25949854 -0.12052628 -0.3934478 0.16028649 -0.43784666 0.17995243 -0.06655315
-0.01029507 0.023553317 0.22873697 -0.29555416 0.12453007 0.101147786 0.42829967 -0.3364807
0.20726338 -0.18935122 0.19250186 -0.207675 0.123078495 0.046478502 -0.005884577 0.10990754
0.0093240775 0.14337665 -0.054097254 -0.08110169 -0.44758874 0.3175521 0.27544636 -0.005248903
0.19037491 -0.36135894 -0.16237846 0.21680766 -0.15213569 0.90049833 -0.09622343 -0.25514743
0.19498341 -0.16180834 -0.16767398 0.45079473 0.18181771 0.25231162 0.039137077 -0.3865223
0.664907 -0.36474374 -0.21959537 0.19218251 0.02919532 0.22657844 0.23521224 -0.3290371
-0.32378563 0.025588682 0.24263006 0.25193533 -0.16317715 -0.21327356 -0.15956053 -0.20438237
-0.47781408 0.2924314 0.12691814 -0.1416521 -0.0101648625 0.18537475 0.38133153 -0.2484546

0.bias f4 [32]
00000000: cd69 e4bd 8895 40be 803a c03d ea4d 473e
00000010: 2cb7 a43e 4d57 423e 7fd0 8e3e 6857 1d3d
00000020: 7b48 f5bd 5a45 b5be e340 d83d fc86 c03d
00000030: 3ff1 ec3d da8a b53c 19cd b9be c7ef 37be
00000040: e888 de3d 54e2 20be 27bc 4bbe 06d9 033e
00000050: 9064 ac3d 22e4 3dbe 3e93 5e3e 1c5b 0b3e
00000060: faf8 a2bd 9f18 843e fb56 953e c4b6 b5bd
00000070: ffcd 07be 8ba8 98be d4dc 8a3e c8d9 3e3d
-0.111529924 -0.18807042 0.09386158 0.19463316 0.32171 0.18978615 0.27893445 0.038413435
-0.11976715 -0.35404474 0.10559251 0.09400746 0.115694515 0.022160936 -0.3628929 -0.17962562
0.108659565 -0.15711337 -0.19895993 0.12875757 0.08417618 -0.18544057 0.21735856 0.13608974
-0.07957645 0.25800034 0.29167923 -0.088727504 -0.13262175 -0.29816088 0.27121603 0.04659441

2.weight f4 [32, 32]
00000000: 361d 7d3d f1fb 653e ae82 133e 6f0f 103e
00000010: c981 83bd 89b4 e03b b161 6c3d aac8 b33d
00000020: 31fe 533c 306e 903d 2deb 673e be28 1e3d
00000030: 2f43 263d b816 053e 22b4 243e c1a1 783e
00000040: a060 1abe 8b61 473e a38f 09bc 38cc 34be
00000050: c731 563d 5ff4 39be f262 95bd 8f52 b4bd
00000060: f3df 363e ce0a 5b3d 1ad7 f43d 5e37 39bc
00000070: 8f4b 353c 7565 94be 6150 72bc 777c 76bd
00000080: 8fe9 97be bd5f 083d ca49 40be e403 3abe
00000090: 526b ebbd 235e 343e 71e8 173d 9f9b 4f3e
000000a0: 6199 553d 4a81 43bd f8d0 d9bd 9863 13be
000000b0: 93d3 053e b425 a3bd 342f fdbc 58f3 61be
000000c0: c94d 2a3d 3a11 2fbd 0c94 c23d 147e d6bd
000000d0: 8e8a fd3c 1854 0a3d 7c11 303e 8065 063e
000000e0: 35ea 12be 5a2c cd3d f955 98be fc22 2a3e
000000f0: 8d8e 5f3d e416 743e 8b2a 3e3d d9ab 633e
00000100: b50e 46be 7568 85be 230e 01bd 318e 833c
00000110: 8b54 683e b8b6 773c a309 433e 1a02 0c3e
00000120: ea1d e9bd 3a19 79be aeec 1f3c f55d c1bd
00000130: aa57 ec3d e50b 7cbe f3f9 993d 23a4 533d
00000140: b077 013d 8fd9 ab3b 8d09 9bbc 26fc 37bd
00000150: e4d5 4abd 80b4 a8be d836 9b3b c11e f5bd
00000160: ec51 433e 43c8 463d 9e0a 7a3d 0e81 fd3d
00000170: 5d9d 3dbd f2ec f43d 73a7 583e b2b6 01bc
00000180: ad37 6dbb 73c5 42be 37b5 a3bd 6978 3dbd
00000190: 051f 4f3e 527a 9cb9 7749 b6bd 6270 163e
000001a0: f379 d93c b72f 71bd 83cf 05bd 9528 173c
000001b0: 18de 143e 38e7 45be 0fff 0dbd 5920 853d
000001c0: 5900 f23d 1a80 4bbe 1c65 23bd c0cc 6c3b
000001d0: ec25 49be 9582 b7be 13ed bfbd 72a1 afbd
000001e0: 594d 7abb 70a9 1bbe 924a 92bd 2862 7cbe
000001f0: 56df 5e3e ce9c 073c fd35 8f3d 8e67 7d3d
00000200: 99ac 67bd 4092 623e efd4 353e 87a2 c4bd
00000210: 112d 3dbe 53c7 29be 94c7 fbbd 932b dbbc
00000220: f02f 2dbe bab4 fdbc 2ad7 c53d 89cd 94bd
00000230: 65df f1bd 68f4 14bd 073f 313e 05e7 903c
00000240: 27f8 02be 793a 163c 7efb 82bd 7ce2 393d
00000250: a639 ae3d 6984 a03e 6b7f d2bd e6b8 9cbd
00000260: 7985 cf3c 013f d83c 0400 bbbd 4c56 543e
00000270: 19e4 d43c 9696 dfbd d4a3 afbe 9c90 1fbe
00000280: 9c8d 81bd 646b 3f3b 27bd eabd 27c5 da3d
00000290: 66a4 933a c28e 823e 0049 003e cd0f 2e3c
000002a0: ccdd 053d feb8 27be 1231 a6bd 3456 833d
000002b0: ed27 2b3e be7c c6bd af87 86be 0c2f 1bbd
000002c0: eb14 29bd 1956 0cbe 2a01 f93d 0b4f 71bd
000002d0: 6f45 4d3d e440 99be 062c 7b3c 8a4d afbd
000002e0: 5934 f83d 3505 ecbc 6ded d43d 22ad d9bd
000002f0: 829a 9bbd 8774 8ebe d9b4 293e d8a6 ecbc
00000300: a9af 39bd 640d e6bd 2f98 37bc ff77 debd
00000310: 3a63 023e 8059 e13d fb56 88bd 8a06 5d3e
00000320: 43a3 b53d 6849 87be 9958 28bd e52e 063e
00000330: 86f9 5c3e 9e39 9d3d 1c7a 9cbd a128 eaba
00000340: eb62 2c3e 2738 ddbd b202 c5bd cdc2 503e
00000350: 82fb e239 29dd 28be cdf9 213e 8acc 253e
00000360: 23ac 1c3e 7ae5 6c3c d996 d43d d72c 833d
00000370: 9e53 cdbd 9e74 f6bd b539 a63e 2c51 383e
00000380: e135 00be 0622 e23d cd23 a13c 1dd5 483b
00000390: c68f a8bd 2bec f7bd 9612 46bd 7be5 b73d
000003a0: 7faa de3d b6c9 973d 1288 2b3e 6f56 62bd
000003b0: cef9 96bb 3e0a 78bd 1c68 8c3e f605 27bd
000003c0: de0a 933d 8a88 8c3e 6c65 09be e30d 0f3e
000003d0: 7a8e d3bd f42f ff3e 4704 62bd ef60 c0bd
000003e0: 13c0 26be eb9d dcbd 2c03 eebd 5a0f eb3d
000003f0: ff0e 57bc af85 ad3d 1bc1 efbe 2951 afbd
0.061795436 0.2245939 0.14405319 0.14068387 -0.06421239 0.006857459 0.057710353 0.08778508
0.012939022 0.070522666 0.22648306 0.038613074 0.040591415 0.12996948 0.1608434 0.24280454
-0.15075922 0.19470803 -0.008396062 -0.17656028 0.052293565 -0.18159626 -0.07294263 -0.08804809
0.17858867 0.0534771 0.1195509 -0.0113047045 0.011065378 -0.28983656 -0.014789672 -0.060177293
-0.2967038 0.03329443 -0.18778148 -0.18165547 -0.11495079 0.17614035 0.037086908 0.20274208
0.052148227 -0.04773072 -0.10635561 -0.14393461 0.1306899 -0.07966176 -0.030906297 -0.22065485
0.041578088 -0.042741038 0.09500894 -0.10473266 0.030949857 0.033771604 0.1719417 0.13124657
-0.14347155 0.10018225 -0.29753092 0.16614908 0.054579306 0.23836857 0.04642729 0.22233523
-0.19341548 -0.26056257 -0.031507622 0.016059013 0.226885 0.015119247 0.19046645 0.13672677
-0.11382659 -0.2432603 0.009761019 -0.09441749 0.11540158 -0.24613912 0.07518377 0.051670205
0.031608284 0.005244441 -0.018925453 -0.044918202 -0.04952039 -0.3295021 0.0047367625 -0.119687565
0.1907422 0.04853083 0.06104528 0.12378131 -0.04629265 0.11959256 0.21157627 -0.007917093
-0.0036196515 -0.19020633 -0.07993548 -0.04625741 0.20226677 -0.00029845774 -0.08900731 0.14691308
0.026547408 -0.058883395 -0.0326686 0.009225984 0.14537847 -0.19326484 -0.03466707 0.065003105
0.118164726 -0.19873086 -0.039891347 0.0036132783 -0.19643372 -0.35841814 -0.0937139 -0.08575715
-0.0038193075 -0.15201354 -0.071431294 -0.24646819 0.21764883 0.008277131 0.06992719 0.061866336
-0.056561086 0.22126102 0.17757009 -0.09601312 -0.18474223 -0.16579942 -0.12293926 -0.026754176
-0.16912818 -0.030969966 0.0966018 -0.07265765 -0.11810187 -0.036365896 0.173092 0.017688284
-0.12789975 0.009169214 -0.063956246 0.045382008 0.08507089 0.3135102 -0.10278209 -0.07652454
0.0253322 0.02639723 -0.09130862 0.20736045 0.025987672 -0.10917394 -0.34304678 -0.15582508
-0.06325838 0.0029208297 -0.11461859 0.10682135 0.0011264205 0.2549954 0.12527847 0.010623884
0.032682225 -0.16379163 -0.08114828 0.06412926 0.16714449 -0.096917614 -0.26275393 -0.037886664
-0.041279715 -0.13704719 0.12158425 -0.058913272 0.050115045 -0.2993232 0.01533032 -0.08559711
0.121193595 -0.028811077 0.10396848 -0.106287256 -0.075978294 -0.27823278 0.16572894 -0.028888151
-0.04533354 -0.11233023 -0.011205717 -0.10862731 0.12733164 0.11003399 -0.06657215 0.21584526
0.0886903 -0.26423192 -0.04110012 0.13103826 0.2157956 0.07677005 -0.07640478 -0.0017864892
0.16834609 -0.10801726 -0.09619655 0.2038681 0.00043293467 -0.16490616 0.15817948 0.16191307
0.1530004 0.014459008 0.103803344 0.06405037 -0.10025714 -0.12033962 0.32465902 0.17999715
-0.12520553 0.11041646 0.019670391 0.0030644604 -0.082305476 -0.12105592 -0.04835757 0.08979317
0.10872363 0.0741152 0.16751125 -0.05525821 -0.0046074158 -0.060556643 0.2742318 -0.04077717
0.07179807 0.2744792 -0.13417596 0.13970141 -0.103299096 0.49841273 -0.05517986 -0.093934886
-0.16284208 -0.10772308 -0.11621699 0.114775375 -0.013126134 0.08472764 -0.46827015 -0.08560402

2.bias f4 [32]
00000000: 4d8b 19be 7c74 ec3d 6578 bd3d ffd8 013e
00000010: d0ac 61be a1b4 a3bd 694e 1dbd 8fd0 2bbe
00000020: 3a74 01bc b493 133e 2200 b23d b2d4 f0bd
00000030: ca41 bb3d 304c ecbd 05b5 bbbc 7450 883d
00000040: 2c96 953c 4c71 a53d b86f 2c3c 7101 283e
00000050: e07d b83c 69e3 bb3d c855 eebc 0aef b6bd
00000060: 9bf4 1a3e 53d4 983d ac44 443e dc2a 863c
00000070: 2b73 4a3d de5d 17be 3a62 373e a7ea d4bd
-0.14994545 0.11545655 0.09251479 0.12680434 -0.22038579 -0.079934366 -0.038404856 -0.16778778
-0.007901246 0.14411813 0.086914316 -0.117593184 0.09143408 -0.11537969 -0.022913465 0.0665597
0.018260084 0.0807825 0.010524683 0.164068 0.02252096 0.091742344 -0.029093638 -0.08932312
0.15132372 0.07462373 0.19166821 0.016377859 0.04942624 -0.14781901 0.17908564 -0.10396319

4.weight f4 [32, 32]
00000000: 6b55 3d3e c6a4 babd ce33 963d afb3 83bd
00000010: 1c43 2cbe 1d12 173d 62cf 34be cda1 81bd
00000020: b317 2abd 7c44 4fbd c172 e83c f245 d03d
00000030: 9145 063e 6bdc 05bd bcc0 ce3c 1712 ffbd
00000040: 6b03 853d 9ad8 96be b16c 1fbe cf0b a5be
00000050: 84c4 9f3c aaf0 c33c 75a0 e63d 5a8e 173d
00000060: d807 dfbd bb56 a8bd 17e4 ee3d 110f 8dbd
00000070: 077f ca3d 379a 5cbe 930b 4fbe 63d7 d4bc
00000080: 8c23 643d 4c6a a63d a972 0e3e c249 e8bd
00000090: c4ba be3d 989a 75be f9f8 5fbe d706 3e3e
000000a0: 6452 edbb 83fb 963d 4fd3 a43c d967 0cbe
000000b0: 90dc f6bd 7b37 fdbd f6b0 b53c d6f7 56be
000000c0: 2055 22be 1971 cf3d 719a ef3d 0c5b e13d
000000d0: 4eab 02be a4e7 173e 9c2f 543e 0ef8 babd
000000e0: 1a68 74be 6c92 65be 51bb 2abe 2e5c 9fbd
000000f0: 5dec c6bd 68d3 033d 600c 32be 0e0f a8bd
00000100: 81bf 4c3c 3740 75bd 375d e0bd e562 5b3d
00000110: ac91 2f3e 0bf6 333d b7fe 67bc f3dd a43d
00000120: bc9b 50be 1ccb 073e bd09 843e 7776 62bc
00000130: 8e0f 623e 765f 9e3e 3df7 37be 2b45 963d
00000140: 6701 073e 4632 4b3d baa2 58be e81c 863c
00000150: 355f e23d e6ce 3f3e 31c1 4ebc 1bf7 873e
00000160: 64e8 7a3e 5996 b0bd bcfc abbc a5f6 34bd
00000170: 885d 2ebd fadb e0bc ff04 883d 584c 71bd
00000180: 9216 c0bb db6d 5dbd 2a85 203c f084 1bbc
00000190: d9b1 353e 6eb3 66bc d0d3 43be 49d7 d23c
000001a0: bb8a ccbd 5813 cd3d c8e6 c9bd b560 a2bd
000001b0: 8f6c 3d3e bd28 603e c60e 83be a60c 0c3e
000001c0: 0c22 0e3d bd80 06bd 4510 6ebe 53f5 b5bd
000001d0: 433d 173e 96d6 963e df72 443e 6bb4 4e3c
000001e0: a448 2bbe 2c39 c0bd 829e 46ba 9584 82bc
000001f0: 9ca2 dfbd 1a2f d13d 02cf 05be 011d 5fbe
00000200: 8b9f 183e ab54 abbd b82b 77be 0a12 39be
00000210: 5e7e 1e3e 1111 4abe ac2d 75bd c59b d23e
00000220: 1abb ba3d dfd8 7abd df7e 393e 1034 3f3e
00000230: b7e4 dd3d f911 e03d 00c0 0b3d 8349 44be
00000240: e69a 783d 8458 9a3d 1a9b 48bd 868b 83be
00000250: fada 283e a352 9e3e aeb2 a93e 4639 9c3d
00000260: ad5c 21be 8890 edbd fe15 38be 95ab eebd
00000270: 420c 2b3e 1391 153e 595f 69bd 9f48 47be
00000280: 92cf 12bd 7d67 efbb 1adb 25be a609 ef3c
00000290: f039 793e 4250 f7bd 1dab 883d 888d b53e
000002a0: 8b56 7ebd 6c41 54bc 89be 3f3e e677 56bd
000002b0: 2063 cc3b 93b7 8dbd 7533 ab3d 4f10 743c
000002c0: 8c19 ce3d 3546 a33d 5d8d 7ebd 85d0 5fbe
000002d0: e392 6d3d 821a d93d 6ffc 433e bab0 173e
000002e0: 84e3 5dbe fc3b 4bbe 3b7c 11bd 24bd dbbc
000002f0: 81f5 733d d2fa 783e a808 69bd 4702 57be
00000300: 7223 cdbd be8d 2d3e b3db 20be 45e6 623c
00000310: b75c 7d3d 971c 7b3d 46dc 37be 1e1f b93e
00000320: ba2d 71bd 61c2 103d 110b 123d faba fe3b
00000330: 2856 3dbe b68e f1bd 9763 b9bc 4f5f 3ebc
00000340: 0620 113b fd9c d73d 6859 abbb 2fec 153e
00000350: cdf6 5f3d 0afd acbc dcac 743e b34f 7dbd
00000360: 2bf7 d0bd e57f 35be 6475 abbe 2d0f 8ebc
00000370: c4aa 4cbe 720d 4e3e 58ac bd3d 0a21 203c
00000380: a837 5c3d 22d0 b2bd f99a 3cbe 2435 50bd
00000390: 8a81 1d3e 2968 a53d 59a5 82be f556 df3d
000003a0: d60d c0bd ef16 bbbc e370 453d ab6f 073b
000003b0: 12a0 3a3e 511d 5e3e 44f3 09be a480 52bd
000003c0: 8e89 283c 149e bcbd 4c43 b0bd 8506 6b3d
000003d0: aa95 86bd 8ec4 713e 0c86 3bbc ac96 5fbd
000003e0: a347 9f3d ccdc 19be 66bc eabd 597d 98bd
000003f0: e588 3c3d a099 d9bd 200a 8ebe 55b3 4fbe
0.18489616 -0.09113459 0.073341 -0.06430756 -0.16822475 0.03688251 -0.17657235 -0.06329689
-0.041526508 -0.05060242 0.028375031 0.10169591 0.13112475 -0.03268091 0.025238387 -0.12454622
0.064947926 -0.2946213 -0.15568806 -0.32235572 0.019502886 0.023918469 0.112610735 0.03700099
-0.10890168 -0.082196675 0.116645984 -0.06887639 0.0988751 -0.21543203 -0.20219259 -0.02598161
0.055697963 0.08125743 0.13910927 -0.11342193 0.093129665 -0.23984754 -0.2187232 0.18557297
-0.0072424877 0.07372191 0.020120291 -0.1371149 -0.12053788 -0.12364098 0.022179108 -0.2099298
-0.15852785 0.101289935 0.11699379 0.11003694 -0.1276066 0.14834458 0.20721287 -0.09129344
-0.23867837 -0.22419137 -0.16673018 -0.07781254 -0.097130515 0.032184035 -0.17387533 -0.082059965
0.01249683 -0.059875693 -0.10955279 0.05356111 0.17145413 0.043935817 -0.01415985 0.08050146
-0.20371908 0.13261074 0.2578868 -0.0138221895 0.22076246 0.30932206 -0.17965408 0.073374115
0.13184129 0.04960849 -0.21155825 0.016371205 0.110533156 0.18731269 -0.012619303 0.26555714
0.24502712 -0.086224265 -0.020994537 -0.04418053 -0.042569667 -0.027448643 0.06641578 -0.058910698
-0.0058620656 -0.054059844 0.009797374 -0.009492144 0.17743625 -0.014080865 -0.19123769 0.025737422
-0.09987398 0.10013455 -0.09858471 -0.07928602 0.18498443 0.2189054 -0.2559721 0.136767
0.03470044 -0.03283762 -0.23248394 -0.088846825 0.14769463 0.2946059 0.19184445 0.012616257
-0.16726929 -0.09385905 -0.000757672 -0.01593236 -0.10919687 0.10214062 -0.13067248 -0.21788408
0.14904611 -0.083657585 -0.24137771 -0.18073288 0.15477893 -0.19733073 -0.05985801 0.41134468
0.09117718 -0.06124198 0.18114804 0.18672204 0.108346395 0.10940928 0.034118652 -0.19168667
0.060694598 0.07536414 -0.04897604 -0.25692385 0.16489783 0.30922422 0.33144134 0.076281115
-0.15758009 -0.11599833 -0.1797714 -0.116538204 0.16703895 0.14606123 -0.056975696 -0.19461296
-0.035842486 -0.007306038 -0.16196862 0.029179405 0.24338508 -0.12075855 0.06673262 0.35459542
-0.062094253 -0.012955051 0.18725027 -0.052360438 0.0062374026 -0.0691978 0.08359424 0.014896466
0.100634664 0.07972375 -0.062146533 -0.21856888 0.05800141 0.10600759 0.19139265 0.1481351
-0.21668822 -0.19847101 -0.035518866 -0.026823588 0.059560303 0.2431443 -0.05689302 -0.20996962
-0.10016526 0.16948602 -0.15708809 0.013848846 0.061855998 0.061306562 -0.17955121 0.36156553
-0.0588815 0.035341624 0.035655085 0.007773754 -0.18489897 -0.11794798 -0.022630496 -0.011619403
0.0022144332 0.1052799 -0.005229164 0.14640878 0.054678727 -0.021116752 0.23894066 -0.061843585
-0.102033935 -0.17724569 -0.33488 -0.01734122 -0.19987017 0.20122316 0.092613876 0.009773502
0.053764015 -0.087311044 -0.18418492 -0.05083193 0.15381446 0.080765076 -0.25516775 0.109052576
-0.09377639 -0.022838084 0.04820336 0.0020665925 0.18225124 0.21690871 -0.13471705 -0.051392213
0.010286702 -0.092098385 -0.08606586 0.057379264 -0.06571515 0.23610136 -0.0114455335 -0.05458705
0.077773355 -0.15025634 -0.114617154 -0.07445783 0.04602899 -0.10625005 -0.277421 -0.20283253

4.bias f4 [32]
00000000: 0845 0c3e 605d c13c 209d febc 01c5 d5bd
00000010: b574 c9bd d7a9 f13c 1247 11be 170d 3fbe
00000020: c0b9 9e3d 11de 48bd 6cac 1abc f5d7 a7bd
00000030: 3e66 19be 5778 fabd c3d8 24bd d580 68be
00000040: 7c1d 8cbd 11ff 163e fe05 14be 2eee 533e
00000050: 0f98 fbbd e019 053d 37af 413c cdc8 4ebe
00000060: 58e6 323d 5e89 0c3e 5e02 9fbc 69bc 2b3e
00000070: 3922 923c 49db 99bd e222 fe3c 2d85 0d3e
0.13698208 0.023604095 -0.031080782 -0.10437966 -0.09836713 0.029499931 -0.14187267 -0.18657337
0.07750273 -0.049039904 -0.009440523 -0.081954874 -0.14980409 -0.12229984 -0.040245783 -0.22705396
-0.06841561 0.14745738 -0.14455411 0.20696327 -0.12284862 0.03249538 0.01182156 -0.20193787
0.043676704 0.13724276 -0.019410308 0.16771092 0.017838584 -0.075125284 0.031022493 0.13820334

6.weight f4 [3, 32]
00000000: 8856 883d 3b83 ea3d cf43 89be a7a5 09be
00000010: 24ab 35bd 6d74 1bbd fe5e 833d 8dbd cfbd
00000020: ee27 9bbe 4201 1ebe e38b 76be 09f8 263e
00000030: 0d57 0fbe 7b9e d6bd 885b 3dbd 0e70 653d
00000040: 0714 57be 9e37 2f3e b568 04be 6a89 0dbe
00000050: fd76 113e 7537 39be 1917 463e 24c7 0d3e
00000060: 24ff 8dbd 1011 92bd 9757 60be 51df c93c
00000070: a7b8 cf3d 7b63 573a 9ed4 a2bd bcfd 5dbe
00000080: 882c 62be 015d 6b3c e25b 6fbd 5ad8 46be
00000090: 806c 19be 735a 8fbd 78ce ee3d 1035 83be
000000a0: e2cb 27be 7896 0cbd a652 d2bd 891c e6bb
000000b0: dee6 00bd ed3d 1dbe 9b0e a23d f505 7cbe
000000c0: a5f9 3a3e 678b e1bd c887 cdbd 0eae 923e
000000d0: 00fd ae3d 3af1 8ebe bce3 043e a917 78be
000000e0: 6cce ac3c eb35 ec3d 630d 32bd 50db 893e
000000f0: eab3 4cbc 8c31 88be 9e76 6bbd ca3f 2e3d
00000100: 5d50 ea3d 4d47 63be 0fff 07bd ec66 12be
00000110: 14e6 94be 0527 66be 95b7 6bbe bc86 fdbd
00000120: 9a15 ce3d 0fd5 733d 9f98 083e dfe9 1f3e
00000130: 9e26 63be d85c 1c3d e94b 443e 85a0 8abe
00000140: fc27 f7bd 088a 633e 51e9 aabe fd06 6f3e
00000150: a0eb 8abd ccad cc3c 252f 003e d46a b7be
00000160: 1b95 893e 4dbb ebbd d017 083e aefb 29bc
00000170: 0323 863e 456b 03bd 17be 8fbe f8db 043e
0.066571295 0.114508115 -0.26809546 -0.13442098 -0.044352666 -0.03795283 0.06414603 -0.10143576
-0.303039 -0.15430167 -0.240768 0.16305555 -0.13998051 -0.104794465 -0.04622987 0.056015067
-0.21003734 0.1711106 -0.12930568 -0.1382195 0.14205547 -0.18087561 0.19344749 0.13845497
-0.0693343 -0.07132161 -0.21908413 0.024642618 0.101426415 0.0008216423 -0.0795071 -0.21678823
-0.220873 0.014365436 -0.058437236 -0.19418469 -0.14982796 -0.06999674 0.116604745 -0.2562642
-0.16386369 -0.034323186 -0.1026967 -0.0070224446 -0.031470172 -0.15355654 0.07912942 -0.24611647
0.18259294 -0.11012917 -0.10035664 0.28648418 0.0854435 -0.27918416 0.12977499 -0.24227776
0.021094523 0.115337215 -0.043469798 0.26925135 -0.012494067 -0.266003 -0.05748617 0.042541303
0.11441109 -0.22195168 -0.033202227 -0.14297074 -0.29081786 -0.22475822 -0.2301925 -0.12379214
0.10062714 0.05952936 0.1333947 0.15616558 -0.221827 0.03817448 0.19169582 -0.27075592
-0.12068173 0.22220623 -0.3338113 0.2334251 -0.06783223 0.024985217 0.12517984 -0.3582369
0.2687157 -0.11510334 0.13290334 -0.0103749465 0.26198587 -0.032084722 -0.28074715 0.12974536

6.bias f4 [3]
00000000: e04f dc3d ad0d ef3c 863a 17be
0.107574224 0.029181326 -0.14768419
